checkpoint.pth (torch_old, 28415 bytes, 6 tensors)

fc1.weight f4 [64, 37]
00000000: 8bf1 dc3e fcd8 25bf 17f2 33bf 4ec4 0abf
00000010: 55a3 20c0 5123 d63d 96cd b03d 3796 cd3d
00000020: fd7e cd3d 62db 103d 48a0 65bd 24fb 3ebc
00000030: 4baa 24bc deb4 abbc 6f18 0b3d e3f9 a03d
00000040: ed1a b23d c7c5 113e 590b f73d 7ab7 ab3c
00000050: 90e7 df3d a273 b33d ee82 0f3e cbad 223e
00000060: dd35 9abc ea2f 153d 2cfb 5c3d a084 903c
00000070: 2756 bb3c 2468 01bd 4fe8 88bc bd85 313d
00000080: 2b44 503d afe5 573d c7c9 35bd a6a7 a0bc
00000090: ebfa af3b f921 a23e fceb 3fbe a96e 47bc
000000a0: d1ef 76be efb6 a0bf fc71 52bd f57d 64be
000000b0: 4fd7 bb3c d44a 0cbe 2a1d 26be a3eb 143b
000000c0: c981 c0bd 175a b03d 9081 8c3d 9f20 063b
000000d0: 8202 99bc 716f 963d 8738 e5bd 2f73 4f3e
000000e0: 8357 f33d feae 873d d615 18be fd4f 7bbe
000000f0: 77c7 4cbe c34f 873e 841b 65be 7182 aebd
00000100: 5ddd 013e ce9d 193e 2928 f33d 80dc 21be
00000110: 09d0 533e 6a13 adbd 5247 393e 766d b63d
00000120: e28a cbbc 9ebf 843b 925b e43e 6959 b2be
00000130: e796 09bf 3043 37be 3cf8 bcbe 64de 9fbe
00000140: aae6 0ebd eb60 3e3e 0ba9 00bf 95f7 0e3e
00000150: 9356 813d 4c95 1bbf 4cac b3bd 581d 85bc
00000160: 7981 3abf 3549 7dbe 1b98 023e 50f1 f53d
00000170: e0f6 90be 4204 7f3c f9a4 c0be 14b8 703c
00000180: 7b0e 01be 0cc4 abbd e708 27bc 1f5a 41bf
00000190: 4205 c33d 9171 0d3e 0a64 bfbe c66d d73c
000001a0: 17d7 01bf 74ee ba3d ac6e bdbe a726 3dbb
000001b0: 634c 56be 8fc4 593e 5c05 41bc 1562 8a3d
000001c0: d569 a4be b0f7 ac3e b0db b9bd 9587 83bf
000001d0: a89d 99bd e496 5a3c d5d6 873e d7ab 40be
000001e0: c1a4 f2be 05b6 063e 5e4c 75be 347f ce3b
000001f0: a4ad 8fbe c2ba 44be a0a5 e53d e294 e4be
00000200: 9a81 adbd f923 2bbf 3d45 a7be fafb d3bd
00000210: 6542 78bd 585c 433d e6cd f53c 5488 5e3e
00000220: d928 393e 9d5b 0ebe 6dce f3bd e127 a5bd
00000230: 83e7 423e 77ab 003e 8774 193e 5736 573b
00000240: 5f79 b8be 3fed bbbd 1997 8f3d 465e 44bd
00000250: 7310 4d3d 9422 cabe 6597 be3d 12cb ecbe
00000260: 442d 59bf cffe 4cbc 1dca 823e 169d 5a3a
00000270: e602 193d bb80 7bbe f52e aabe 70fd 233e
00000280: f189 b03d 22d0 c9be ac8a b1be 0bc4 18be
00000290: 7a28 85be 9d7e 793e 28c4 42bd 7fbd 4c3e
000002a0: 94c2 8dbd 5e69 01bd 2a07 df3c 8161 473e
000002b0: a165 cabc c8b0 8bbc ec16 0cbe a4f4 2f3e
000002c0: 1ccc 22be a605 4bbc 455a 343e 66f4 6ebd
000002d0: 8b0a 7ebe c82b 7d3e dc3b db3c 2cea 8f3b
000002e0: ea37 4cbd 5953 8abc 217a 743d ea72 aa3c
000002f0: ede1 3d3d 0794 4e3c 3d6b 0e3f 2be0 10bf
00000300: d07a 4abe 347d 66bf bcea 3dc0 4112 07bb
00000310: 8b92 983c 327a b43c 3818 583c 1a7b 1ebc
00000320: 3609 ba3d ba32 da3c b3c4 323d aa3b 143e
00000330: 58d4 ac3d 8ea4 783d ab8b 153e 7332 483e
00000340: f992 be3d 0f06 dcbc e0c9 1c3d 1ab9 8d3d
00000350: 3e62 b63d c57d 423e ed6f bf3d 23bf fd3c
00000360: 87fa 6b3d 9571 b63d 9530 e43d 1eea 823c
00000370: 32e0 9c3c e891 273c 938f 9d3e 73d1 01bf
00000380: 1498 5dbe 9ea3 65bf b859 b8bf ef7f 36bc
00000390: 57ce f43c b301 9abe af3e d03d 1fd1 2d3e
000003a0: afc7 b33d 219d 953c fc6a 4d3e 88cb 97bd
000003b0: 0ef5 963c 6462 68be 2e9e a0bd df33 eb3d
000003c0: defc d83d e1f5 aa3e 2ddd 0bbe 9e3a 0ebe
000003d0: 5c05 db3d f4ae 1b3e ab9a 433e eafe 1dbe
000003e0: 0819 3ebd 2948 9f3d 7dc9 e7bd e4e8 0a3e
000003f0: 881c 9f3d f705 7f3d 7658 09be ca0b 77bd
0.43153033 -0.64784217 -0.70291275 -0.5420579 -2.509969 0.10455955 0.086329624 0.10038417
0.10033987 0.03536547 -0.05606106 -0.011656556 -0.010050367 -0.020960268 0.03395885 0.07860162
0.08696542 0.14235602 0.12062711 0.020961512 0.10932839 0.087622896 0.1401479 0.1588661
-0.018824512 0.036422648 0.053950474 0.017641366 0.02286823 -0.031593457 -0.016712336 0.043340433
0.05084626 0.052709278 -0.044381883 -0.019611191 0.005370488 0.31666544 -0.18742365 -0.0121723795
-0.2411492 -1.2555827 -0.051378235 -0.22313674 0.022929816 -0.1370042 -0.16222063 0.0022723458
-0.093997546 0.08610933 0.068606496 0.002046622 -0.018677954 0.073454745 -0.11192422 0.20258783
0.11881926 0.06625174 -0.1485208 -0.24542232 -0.19997965 0.2642804 -0.22373778 -0.085209735
0.126821 0.15001604 0.11872894 -0.1580677 0.20684828 -0.084509686 0.18093613 0.08907597
-0.024846498 0.004051163 0.44601113 -0.3483384 -0.53745884 -0.17896724 -0.36908138 -0.31224358
-0.034887947 0.18591659 -0.5025794 0.13961633 0.06315341 -0.60774684 -0.087730974 -0.016249344
-0.7285381 -0.24734958 0.12753336 0.12008917 -0.2831335 0.01556498 -0.37625864 0.014692325
-0.1260318 -0.08387002 -0.010194994 -0.7552814 0.09522487 0.13812853 -0.3738101 0.026297461
-0.50718826 0.091275126 -0.36998498 -0.002886215 -0.20927577 0.21266387 -0.011781063 0.06756989
-0.32111993 0.3378272 -0.09075105 -1.0275751 -0.07500774 0.013341639 0.2653109 -0.18815552
-0.47391322 0.13155372 -0.23954913 0.006301785 -0.28062165 -0.19211867 0.11213231 -0.4464484
-0.08471985 -0.66851765 -0.32670012 -0.10350795 -0.060610194 0.047695488 0.030005407 0.21731693
0.18081988 -0.13902135 -0.11904607 -0.08064247 0.19033627 0.12565409 0.14985858 0.0032838786
-0.360301 -0.091761105 0.070112415 -0.04794147 0.050064515 -0.39479506 0.0930622 -0.4624868
-0.84834695 -0.012511923 0.25544825 0.00083394477 0.03735628 -0.24560826 -0.3323895 0.16014647
0.0862006 -0.39416605 -0.3467611 -0.14918534 -0.26007444 0.24364705 -0.04755035 0.19994162
-0.069218785 -0.031594627 0.027225096 0.19470789 -0.024706664 -0.01705207 -0.13680619 0.17183167
-0.15898174 -0.012391483 0.1761256 -0.058338545 -0.2480871 0.24723732 0.026761942 0.004391929
-0.04985801 -0.016885446 0.059686784 0.020806748 0.046358038 0.012608535 0.5563238 -0.56592053
-0.19773412 -0.90034795 -2.967452 -0.0020610245 0.018624565 0.022030924 0.013189368 -0.009672904
0.09083788 0.026635516 0.04364462 0.14475885 0.08438939 0.060703807 0.1460406 0.19550495
0.093053766 -0.026858358 0.03827846 0.06920071 0.08905457 0.1899329 0.0934752 0.03097493
0.05761197 0.08908383 0.11142079 0.015980776 0.019149873 0.010227658 0.307736 -0.5071022
-0.21640044 -0.89702785 -1.440238 -0.0111389 0.029883547 -0.3007942 0.10168206 0.16974305
0.08778321 0.018263401 0.20060343 -0.074118674 0.018427398 -0.22693783 -0.078426704 0.11484503
0.105951056 0.33390716 -0.1365859 -0.13889548 0.106943816 0.15203458 0.1910197 -0.15429273
-0.04641059 0.07777435 -0.11317728 0.13565403 0.07769114 0.062261548 -0.13412651 -0.060313977

fc1.bias f4 [64]
00000000: 1cb7 4d3e 497d 26be fbee 59be 0391 2bbd
00000010: d5ca e73d 4562 c53d 4c99 06be 02f7 aa3d
00000020: 59b8 0e3e edaf 7dbe cfd4 f93d aef7 963e
00000030: 9d3a f63d 079e 223e f1a7 19be fb3c 803c
00000040: 5e35 883e 0bba 8b3d 12ba d0bc d3ac 8fbe
00000050: 0ba2 e8bc 655a e7bc ee3f 953c 6af5 5ebe
00000060: 2cd6 56be ceed f93d ce10 47be d021 b0bd
00000070: 399e 3d3e 4adb d93d c720 21be 8e70 4abe
00000080: 42ac 2f3e 55c2 97bb 48c6 aebd 91bb 88bd
00000090: 7c83 d73d ce04 44bd 9427 60be 8940 25bd
000000a0: 22aa febd 058b a83d 4d03 8cbe 80a0 2d3e
000000b0: 0ef3 9a39 1203 03be cfee ebbd 0f0c 18be
000000c0: bbf0 30be c5b0 803d 440c 77be d925 cebd
000000d0: 9eb2 ecbc 0128 6ebe 8176 15be b9f6 2e3b
000000e0: 1687 303d 96a3 a9bd 564b 82be c7f7 74be
000000f0: b976 833d 2bca aa3d 487d b7bc 09da b9bd
0.20089382 -0.1625873 -0.2128257 -0.04188634 0.11317984 0.09637884 -0.13144416 0.08347894
0.1393751 -0.24774142 0.12198793 0.2948584 0.12022898 0.15880595 -0.15005471 0.015654078
0.26603216 0.06822594 -0.02547935 -0.28061542 -0.02839758 -0.028241346 0.01821896 -0.21773306
-0.20980138 0.12203561 -0.19440004 -0.08600199 0.18517388 0.10637529 -0.1573516 -0.19769499
0.17155555 -0.0046313205 -0.08533913 -0.066764005 0.105231255 -0.047856145 -0.21890098 -0.04034475
-0.12434794 0.08229641 -0.27346268 0.16955757 0.0002955426 -0.1279414 -0.115201585 -0.1484835
-0.17279331 0.06283716 -0.24125773 -0.100658126 -0.028893765 -0.23257448 -0.14595987 0.002669735
0.043097578 -0.08283155 -0.25448102 -0.23922645 0.06419129 0.08339342 -0.022398606 -0.0907479

fc2.weight f4 [64, 64]
00000000: 9354 833d 35cd 4fbd 6ef5 51be 0f02 213e
00000010: 0091 9c3e d80e e4bc 4762 603e 389e 023d
00000020: 530f 0dbe 4051 453c 891f 863d 9dc8 3abd
00000030: 800c 183d 3e50 3d3e e736 31be ee3f 463e
00000040: 6e40 7bbd 5dc5 bfbe a22c 7f3d bd59 833d
00000050: 2131 063e 1e57 53bc 112c d23d c8fb acbe
00000060: 0515 d53d cf54 babd dda4 44be 2e65 3a3e
00000070: 9e7c 6d3e cadd 5fbd 60bc 24bf d13f 4dbd
00000080: 9234 1bbf 233f e6bd 3b3b 3dbf 3197 0c3d
00000090: fb83 afbd d7bc 7f3e d450 23bd 1782 103d
000000a0: a7d0 1ebe 202a 433e 04ca 693d ddf8 cebb
000000b0: d7bf 83be 8b11 e2be 2456 d1bd cecf 99bd
000000c0: 4835 b0bd d57e b43b cde1 5dbd 75d1 503c
000000d0: a181 a4bc a6f2 843d f669 bebe 154b b9be
000000e0: 47b3 203e 757f 05bf a5c9 f1be 2be7 02bf
000000f0: 2f17 08be b916 fa3e 730a 0fbf 20d1 463e
00000100: 0802 aebd 343e 8b3d 8678 9b3e dfc4 553d
00000110: 92f8 283e b0c4 b03e 82b9 a83d f8bf e33d
00000120: 023b 38bf 24bf 6d3d 8ea2 08ba 0dc2 8a3e
00000130: c992 e13d eaf0 0abe 5163 d7bd 7074 913e
00000140: 8d4a b6bd a5af dcbc 78d9 d3be d1ca 863b
00000150: 31fa 083e cbcc 1c3e 4c73 1b3c 1546 233e
00000160: 4d60 93bb ca3c febd b2d7 8f3d 3d66 3cbf
00000170: e5a7 753e 201b c2be 79b6 a63d 7735 013d
00000180: 0028 b4bd 834d 2e3e 7f92 803e 1085 053e
00000190: 27df 42bd 169a 32bf cf77 6dbe 2a88 d3be
000001a0: dd64 c5bd 42f6 94bc 033e c5be 2908 16be
000001b0: fe71 103d 16ef a43e ac3c 983c 7ee7 0d3d
000001c0: fe8c 3a3e e65c fcbc 036a 9ebe 2569 8cbd
000001d0: 21e5 c3bd 424e 963e 9299 97bd 8c05 d4be
000001e0: 5457 1abe 9cd1 7f3d ee76 16be 5746 643e
000001f0: 22dd 833b be28 683d 254d 073d def0 e8bd
00000200: ecfa a63c 1913 823c ec98 d2be 086e 5d3d
00000210: 30a2 103e e2f6 a7be 2951 6abe 774d 66bc
00000220: 20b3 c63e e15b 4dbe 65ed 883c b30d 74bd
00000230: 1510 0e3e ed8b 0fbe a7bc b03e b3a9 fdbd
00000240: 151b b4bd 7303 8b3e 2d6b 853d 6205 19be
00000250: 7d4f 27be 24d5 f43d e2ea 06bd 5919 2a3e
00000260: c46c 99bd 06eb 08be 8112 adbc 8f01 203f
00000270: eff0 293e feac 0d3f 7830 d1bd 447d b03e
00000280: 1660 96bb f71c 1dbe ea5b f7bd bb74 dd3c
00000290: 0527 183b 320a 37bd a47d 583e 9852 17bf
000002a0: 3cc0 5d3c ae03 163d c20d 19be f88b 00bd
000002b0: 255b 023e 647b 26be 4474 15bd c7aa d03d
000002c0: 527c 4c3e 13a1 7fbe cf12 b5bc 1581 a2be
000002d0: 6d1f 8fbe d560 96bd a11c 133e b900 15be
000002e0: 3c54 89bb 2072 8b3b 5023 0d3e 0705 15be
000002f0: a960 f5bd 7905 833c 6e32 2ebc 5e04 03bd
00000300: 21af 6cbe f47b 6c3d 44bb a83d 1c67 29bd
00000310: 7ae7 d5bd c2b2 873d 50ed 93bc ae02 b3be
00000320: 91ed b13e 0c90 e83d d85c 81bd f9de af3e
00000330: 1155 333c fce8 023c 9c71 7c3e 5ea7 46be
00000340: 23eb afbd 5aa9 59bd 7732 d63d 37d5 fcbd
00000350: c366 fa3d ff79 afbd d4f8 2c3d c675 da3d
00000360: 5edf 09bd cebd 8ebe 093d b8bd 1cd5 fbbe
00000370: 99bd 773d 55b2 f8be 6b95 27bd 5111 9c3e
00000380: 83c5 ca3c 850a 393b a3cf 1d3e 5f93 1c3e
00000390: 684a d3bd f4cc cbbd 8ae9 e03c 8f21 0dbf
000003a0: 3600 08be 1d6f cebc 1b0f 7f3c fc09 33bc
000003b0: e9e7 41be 8034 d43d dc45 3dbe 01b4 7539
000003c0: 9436 c53d 0f9f e23d f967 2dbc 9e5b 03be
000003d0: 9f2e 013e 7bfa 8bbe 76aa f0be d3a4 eabd
000003e0: 868c af3a 3253 263d 986f c53d 7e95 1dbd
000003f0: 2fd4 c3be 8c90 633e fe42 3cbe 50d9 6d3b
0.064126156 -0.05073281 -0.2050378 0.15723442 0.30579376 -0.02783911 0.2191249 0.03188917
-0.13775377 0.012043297 0.065489836 -0.045601476 0.037121296 0.18487641 -0.173061 0.19360325
-0.06134074 -0.37455264 0.062298425 0.064136006 0.13104679 -0.012899188 0.10262311 -0.33785844
0.104044 -0.09098207 -0.19203515 0.1820266 0.23192069 -0.054654874 -0.6434994 -0.05010969
-0.6062709 -0.11242511 -0.73918504 0.034323875 -0.08570095 0.2497438 -0.039872006 0.035280313
-0.15509282 0.19059038 0.057077423 -0.006316288 -0.257323 -0.4415401 -0.10221508 -0.07510339
-0.086039126 0.0055082836 -0.05417042 0.012745251 -0.020081343 0.06491594 -0.37190217 -0.36190096
0.15693389 -0.5214761 -0.47224155 -0.51133984 -0.13290094 0.4884546 -0.5587532 0.19415712
-0.08496481 0.06798974 0.3036539 0.052189704 0.16501072 0.3452506 0.08238508 0.111205995
-0.7196504 0.058043614 -0.0005212211 0.27101174 0.11014325 -0.13568464 -0.1051699 0.28409147
-0.08900938 -0.026939223 -0.41376853 0.004113533 0.1337669 0.15312497 0.009487938 0.15944703
-0.004497564 -0.12413938 0.070235625 -0.73593503 0.23989828 -0.3791132 0.08140273 0.03154513
-0.08796692 0.17021756 0.25111768 0.1303904 -0.047576096 -0.69766366 -0.23190235 -0.41314822
-0.09638379 -0.018183831 -0.38523874 -0.1465155 0.03526496 0.32213658 0.018583618 0.034644596
0.18217847 -0.030806016 -0.30940256 -0.06855992 -0.09565187 0.2935658 -0.07402338 -0.41410482
-0.15072376 0.06245576 -0.14693806 0.22292458 0.004024164 0.05667948 0.033032555 -0.11374067
0.02038332 0.015878247 -0.41132295 0.054060012 0.1412437 -0.32805544 -0.22882523 -0.014056555
0.38808537 -0.2005458 0.016714761 -0.059583377 0.13873322 -0.14018221 0.3451893 -0.12385883
-0.08794228 0.2715107 0.06514583 -0.1494346 -0.16338916 0.11954716 -0.032938845 0.16611232
-0.074914485 -0.13370904 -0.021126987 0.6250238 0.16595815 0.5534209 -0.10214323 0.3447057
-0.004589091 -0.1534308 -0.12078078 0.0270332 0.0023216617 -0.044687457 0.21141678 -0.59110403
0.013534602 0.036624603 -0.14946654 -0.031383485 0.12730081 -0.16258007 -0.036487833 0.10188823
0.199693 -0.24963789 -0.022103695 -0.31739107 -0.27953663 -0.07342688 0.1436639 -0.14551057
-0.0041909497 0.004255548 0.13783002 -0.14552699 -0.11981327 0.01599382 -0.010632141 -0.031986587
-0.23113681 0.0577354 0.08238843 -0.0413581 -0.10444541 0.06625892 -0.018057495 -0.34962982
0.3475156 0.113556 -0.06316537 0.34349802 0.010945574 0.007990118 0.24652714 -0.19399783
-0.08589771 -0.05314002 0.10458844 -0.12345355 0.122266315 -0.08568191 0.04222949 0.10666995
-0.033660285 -0.27879184 -0.089960165 -0.49186027 0.06048355 -0.48573557 -0.04091398 0.3048196
0.024752384 0.002823503 0.15411238 0.15290593 -0.10316926 -0.09951201 0.02745511 -0.5512933
-0.1328133 -0.025199467 0.015567566 -0.010927673 -0.18936123 0.10361576 -0.1848368 0.00023432077
0.096295506 0.11065494 -0.010583871 -0.12827918 0.12615441 -0.2733954 -0.4700505 -0.11457219
0.001339332 0.040606685 0.096404254 -0.038472645 -0.3824782 0.22223109 -0.1838493 0.0036292858

fc2.bias f4 [64]
00000000: 3d4b 87bd 2549 9fbd c353 cc3e 33fb 2b3e
00000010: b115 8c3e 431b a0be f569 0dbe f5c1 9cbc
00000020: 3975 0c3f efb7 4f3f 793f a43b c35f fd3d
00000030: cb41 c03e dea3 b9bd f8d9 9bbd 3e77 9fbc
00000040: 5bb4 8abd e9ee d93b 248b 69bd ec0b 5e3e
00000050: 6473 2f3f f6df 5a3f 70cf 67be 9d69 16be
00000060: 384d d0be 205a 9bbd 3ec7 113d c0bd 5dbd
00000070: b005 a5bd 5456 4c3e 05bd 4cbe 331f c63d
00000080: b9ee d13d c6ff c13e 0e34 0c3f d6d7 a0bd
00000090: 5a59 20be 3fa0 92bd b4f0 ee3d e175 ff3c
000000a0: 7337 0f3e d111 603f d6d8 1a3f 2329 a3bd
000000b0: 900b 693e 39c8 adbe 41c9 253f 778d 10be
000000c0: a4c4 913d 7264 46b9 f579 143e dfe9 413f
000000d0: 7cf2 02be dea5 1ebe 1742 263e 4873 95be
000000e0: 98ae 5dbe 8e6c a6be ae81 1abe 71b6 65bc
000000f0: b4be 64bd 8e80 8e3e 7a49 16be 8b68 0ebe
-0.066061474 -0.07777623 0.39907655 0.16795044 0.273603 -0.312708 -0.1380995 -0.019135455
0.5486637 0.81140035 0.0050124493 0.12371781 0.37550196 -0.09064458 -0.076099336 -0.019466039
-0.06772681 0.0066507948 -0.05701746 0.21684235 0.6853545 0.8549799 -0.22637725 -0.14688726
-0.40683913 -0.07585549 0.035590403 -0.054136038 -0.080577254 0.19954807 -0.1999398 0.096739195
0.10250611 0.37890452 0.5476693 -0.078536674 -0.15659085 -0.07159471 0.11667004 0.031184139
0.13985996 0.87527186 0.60487115 -0.079668306 0.22758317 -0.3394182 0.64760214 -0.14116465
0.07117584 -0.0001892017 0.14499648 0.75747484 -0.12787813 -0.15492961 0.16236149 -0.29189515
-0.21648633 -0.32504696 -0.15088531 -0.014020548 -0.05584593 0.27832454 -0.14676467 -0.13907067

fc3.weight f4 [4, 64]
00000000: 623b 483d c6d7 28bc 67fd 4f3e 39ed cd3e
00000010: 5717 1a3e a1f8 76be ec3f 303e 8823 1cbe
00000020: 8020 793e f329 6f3e 224f e8bc 2e96 9b3d
00000030: a44d c43e 926b 0b3f a36c bbbc ea48 84bd
00000040: 8f8b 733e e2a4 e2bd 9a20 9b3d dc14 f53d
00000050: 4f1f 683e 6fe0 8d3e a26e 533e ad69 edbd
00000060: 5187 1bbe db90 a93d cafe 9a3c 7d9f 603e
00000070: 25e7 cebe 0477 e23e 02b9 5fbe 6ffa 883d
00000080: 40be 8d3e 59a1 493e 5bc4 193e 52f0 433d
00000090: adf3 47bc b114 02bf e79a 8e3c 7d19 b53e
000000a0: 4e89 c7bd dc50 7f3e 2d92 4a3e b0ba 803e
000000b0: 02fc 843e 5051 aebd c702 863e 5547 c73d
000000c0: 1680 083f f659 5c3e 95c7 6f3e a369 923e
000000d0: c32c 913d 8850 60be 9bd6 7f3d cd5a 42be
000000e0: b7d3 3dbf 8a1d 91be ffcf b3bd 90f5 003f
000000f0: 8f43 423e 1978 5f3e 17ea 63be 8570 453e
00000100: 0f68 04bc 5706 1a3d d297 683e 745d bc3e
00000110: c05c 6d3e f0b2 04be 6063 823d f737 52bd
00000120: 58da 6a3e 3b6a 663e affa 8fbc 5725 8f3d
00000130: 9791 b43e 3439 083f 60de a5bc 1ea2 5fbd
00000140: c66d b4bd 94ed e83d fe58 1d3e 2fa0 b63d
00000150: c2e4 823e b9d2 a23e 7cc8 b0be af1c 2dbe
00000160: 4174 24be 5f58 fb3d da32 06bd 6082 87bd
00000170: a222 8dbd 5f46 a43e aeb4 34be b227 ef3d
00000180: 8626 883e af8c 3e3e 9b6c 4e3e 89ca 5f3e
00000190: d781 4dbd 5330 b3bc c213 c03c 6bab cb3e
000001a0: 8887 413e 5e0f 883e 51f3 d83d 7ba8 4d3e
000001b0: ea7e 8b3e 4229 38be 3d83 5c3e b5c0 723e
000001c0: 3b22 623f f7f6 3b3e 6f4c a13e ca59 903e
000001d0: 745c b73d 0b41 54be 647f 7a3e 87ff 25be
000001e0: 6ec4 3d3d 4028 0bbe d357 64be 0136 dc3e
000001f0: c3f6 7e3e 29f3 333e befe 5ebe 6150 b6be
00000200: 491f d7bd 9059 e13e 9018 5f3e 97f0 43bd
00000210: bde2 523e 8187 e0bd f37f 5abe 5acb ae3d
00000220: e39a c03d c59c 7d3e f4c5 0ebe dc38 713e
00000230: a05b 683e 6e93 b5be 665c 98bd 77e5 653e
00000240: fb4b e13e ffec d0be 415b 053e 5304 4d3e
00000250: 933d 183e 7962 b73e 1386 87be 9132 d33d
00000260: 85c5 45be 2b6b 073e 4f03 1c3c 6c10 03bf
00000270: 6402 413e c74f 6a3e 6dd0 bf39 71bd 88bd
00000280: 9bf9 983d 4ee4 3e3e ebcd 593e c905 863e
00000290: 504b db3d fe4b bbbe 0089 3c3e 8ecc e63c
000002a0: ec5a 2c3e 0ea5 8c3e d687 393e ab5d 663e
000002b0: f19c 6f3e 25bb 49be 9348 883e ab9f 9d3e
000002c0: 0ddf 2f3f 1812 2b3d 713e 933e 28c1 dc3e
000002d0: 18d8 4ebd f617 63bc 5d11 9f3e dca1 c2be
000002e0: 153d 99be 9483 f1bd 00fd 0fbf 32d2 e23e
000002f0: 3883 ddbc ce5d 303e 815d debe 716a a9be
00000300: 526d a7bd 64e3 c63e a03c 3e3e 1a46 eebd
00000310: 2f61 603e 7a14 05be acb5 5b3d 9325 8abe
00000320: 529c 0c3e 7eb3 943e 2de8 773e 3058 aabb
00000330: 4c76 823e 6942 de3e 00be 723d e7aa 983a
00000340: fcaa 19bd 2047 35be 26c8 643e 7832 3a3e
00000350: 28f8 553e 8011 963e 85b6 3cbf 2cd6 153e
00000360: f608 f6bd 025a 04bf 107a dc3e 65ab 553e
00000370: 41af 9dbe 4ac6 023d 7516 d9bd c9f5 733e
00000380: c17e 863e 3143 563e 36e5 023e 25c7 593e
00000390: d357 30be 5633 c8bd 456e 2a3e 6172 6e3e
000003a0: adbf a83d 6446 a53e bd68 5f3e 65f4 c4be
000003b0: b572 2c3e 31a3 babe 63de 393e 6a87 013e
000003c0: 143c 52bb 9a1a 32bd 0626 c93e 8817 cb3e
000003d0: f88c 093d 22d9 f93d 4696 003e 0ec0 333e
000003e0: 7d5b e3be 8d50 20be 3f67 b0be c87e d43e
000003f0: 4bb9 d33e db78 043e e6db 98be b01a 82bd
0.048884757 -0.010305351 0.20311509 0.4022005 0.15047966 -0.24118282 0.17211884 -0.15247929
0.24328804 0.23355846 -0.028358046 0.07597004 0.38340485 0.54461014 -0.02287895 -0.0645922
0.23783706 -0.11066605 0.07574578 0.11966869 0.22668193 0.27710292 0.20647672 -0.11592422
-0.15188338 0.08279582 0.018920321 0.2193584 -0.40410724 0.44231427 -0.21847919 0.066883914
0.27684212 0.19690455 0.1501631 0.04783661 -0.012204093 -0.5081282 0.017407848 0.3537101
-0.09742986 0.24933189 0.19782324 0.2514243 0.25973517 -0.08511603 0.26173994 0.097304024
0.53320444 0.21518692 0.23415978 0.2859622 0.07088616 -0.2190572 0.062460523 -0.1897995
-0.74151176 -0.2834285 -0.087799065 0.503747 0.18971084 0.21823157 -0.22257267 0.19281204
-0.00808145 0.037603702 0.22714165 0.3679005 0.23179913 -0.12958884 0.063666105 -0.051322903
0.22934854 0.22501461 -0.01757559 0.06989544 0.35267326 0.53212285 -0.020247638 -0.054597966
-0.0881 0.113734394 0.15365979 0.08917271 0.25565153 0.31801394 -0.34527957 -0.16905473
-0.16059972 0.12272715 -0.03276334 -0.06616664 -0.06891371 0.3208494 -0.17647049 0.11677493
0.2659189 0.18608354 0.20158617 0.21854605 -0.050172653 -0.021873629 0.023446921 0.3977922
0.18899357 0.26574224 0.10593284 0.20083801 0.27245265 -0.17984489 0.21534438 0.23706324
0.8833348 0.18355928 0.31503627 0.28193504 0.08953181 -0.20727937 0.24462658 -0.16210757
0.046329908 -0.13589573 -0.22299127 0.43009952 0.2489882 0.17573227 -0.21776864 -0.356082
-0.10504014 0.44013643 0.21786714 -0.047836866 0.20594306 -0.10963345 -0.21337871 0.0853488
0.09404542 0.24766834 -0.139427 0.23556846 0.22691202 -0.35464042 -0.074394986 0.22450815
0.4400328 -0.40805814 0.13023092 0.20021181 0.14867239 0.35817316 -0.26469478 0.10312379
-0.19313629 0.13224475 0.009522273 -0.5119693 0.18848568 0.22881995 0.00036585648 -0.06676758
0.074694835 0.18641779 0.21269958 0.2617629 0.10707724 -0.36581415 0.18411636 0.028173711
0.16831559 0.27469677 0.18118224 0.22496669 0.23399712 -0.19700296 0.2661787 0.3078588
0.68699723 0.041765302 0.28758577 0.43116117 -0.05049905 -0.013860693 0.31067935 -0.38014114
-0.29929414 -0.11792675 -0.5624542 0.4430099 -0.027040109 0.17223284 -0.43430713 -0.3308902
-0.08175148 0.3884536 0.18577814 -0.116344646 0.21912073 -0.12996092 0.053640053 -0.26981792
0.13731506 0.29043192 0.24209662 -0.005198501 0.25480878 0.43410042 0.05926323 0.0011647613
-0.03751658 -0.17702913 0.22341976 0.18183315 0.20895445 0.29310226 -0.73716 0.14632481
-0.12013428 -0.5169984 0.43061876 0.20866163 -0.3079777 0.031927384 -0.105999865 0.23824228
0.2626858 0.20924069 0.1278275 0.21267374 -0.17221002 -0.097754166 0.16643627 0.2328582
0.08239684 0.32280266 0.21817298 -0.38467708 0.16840632 -0.3645263 0.1815124 0.12649313
-0.0032079266 -0.0434824 0.39286822 0.3966639 0.033581704 0.12199618 0.12557325 0.17553732
-0.44405738 -0.15655728 -0.3445377 0.41502976 0.41352305 0.12936728 -0.2985527 -0.063527465

fc3.bias f4 [4]
00000000: 4ade 133f cf55 f23e 2214 c23e 70d8 da3e
0.5776106 0.47331092 0.37905985 0.42743254
